…
I0617 12:13:49.015868 34209 net.cpp:313] The NetState phase (0) differed from the phase (1) specified by a rule in layer data
I0617 12:13:49.015919 34209 net.cpp:313] The NetState phase (0) differed from the phase (1) specified by a rule in layer accuracy
I0617 12:13:49.016275 34209 net.cpp:49] Initializing net from parameters: 
name: "rec_placas"
state {
  phase: TRAIN
}
layer {
  name: "data"
  type: "ImageData"
  top: "data"
  top: "label"
  include {
    phase: TRAIN
  }
  transform_param {
    mirror: true
    crop_size: 224
    mean_file: "databases/base_mean.binaryproto"
  }
  image_data_param {
    source: "data_training/train.txt"
    batch_size: 64
  }
}
layer {
  name: "conv1"
  type: "Convolution"
  bottom: "data"
  top: "conv1"
  param {
    lr_mult: 1
    decay_mult: 1
  }
  param {
    lr_mult: 2
    decay_mult: 0
  }
  convolution_param {
    num_output: 96
    kernel_size: 11
    stride: 4
    weight_filler {
      type: "gaussian"
      mean: 0
      std: 0.01
    }
    bias_filler {
      type: "constant"
      value: 0
    }
  }
}
layer {
  name: "relu0"
  type: "ReLU"
  bottom: "conv1"
  top: "conv1"
}
layer {
  name: "cccp1"
  type: "Convolution"
  bottom: "conv1"
  top: "cccp1"
  param {
    lr_mult: 1
    decay_mult: 1
  }
  param {
    lr_mult: 2
    decay_mult: 0
  }
  convolution_param {
    num_output: 96
    kernel_size: 1
    stride: 1
    weight_filler {
      type: "gaussian"
      mean: 0
      std: 0.05
    }
    bias_filler {
      type: "constant"
      value: 0
    }
  }
}
layer {
  name: "relu1"
  type: "ReLU"
  bottom: "cccp1"
  top: "cccp1"
}
layer {
  name: "cccp2"
  type: "Convolution"
  bottom: "cccp1"
  top: "cccp2"
  param {
    lr_mult: 1
    decay_mult: 1
  }
  param {
    lr_mult: 2
    decay_mult: 0
  }
  convolution_param {
    num_output: 96
    kernel_size: 1
    stride: 1
    weight_filler {
      type: "gaussian"
      mean: 0
      std: 0.05
    }
    bias_filler {
      type: "constant"
      value: 0
    }
  }
}
layer {
  name: "relu2"
  type: "ReLU"
  bottom: "cccp2"
  top: "cccp2"
}
layer {
  name: "pool1"
  type: "Pooling"
  bottom: "cccp2"
  top: "pool1"
  pooling_param {
    pool: MAX
    kernel_size: 3
    stride: 2
  }
}
layer {
  name: "conv2"
  type: "Convolution"
  bottom: "pool1"
  top: "conv2"
  param {
    lr_mult: 1
    decay_mult: 1
  }
  param {
    lr_mult: 2
    decay_mult: 0
  }
  convolution_param {
    num_output: 256
    pad: 2
    kernel_size: 5
    stride: 1
    weight_filler {
      type: "gaussian"
      mean: 0
      std: 0.05
    }
    bias_filler {
      type: "constant"
      value: 0
    }
  }
}
layer {
  name: "relu3"
  type: "ReLU"
  bottom: "conv2"
  top: "conv2"
}
layer {
  name: "cccp3"
  type: "Convolution"
  bottom: "conv2"
  top: "cccp3"
  param {
    lr_mult: 1
    decay_mult: 1
  }
  param {
    lr_mult: 2
    decay_mult: 0
  }
  convolution_param {
    num_output: 256
    kernel_size: 1
    stride: 1
    weight_filler {
      type: "gaussian"
      mean: 0
      std: 0.05
    }
    bias_filler {
      type: "constant"
      value: 0
    }
  }
}
layer {
  name: "relu5"
  type: "ReLU"
  bottom: "cccp3"
  top: "cccp3"
}
layer {
  name: "cccp4"
  type: "Convolution"
  bottom: "cccp3"
  top: "cccp4"
  param {
    lr_mult: 1
    decay_mult: 1
  }
  param {
    lr_mult: 2
    decay_mult: 0
  }
  convolution_param {
    num_output: 256
    kernel_size: 1
    stride: 1
    weight_filler {
      type: "gaussian"
      mean: 0
      std: 0.05
    }
    bias_filler {
      type: "constant"
      value: 0
    }
  }
}
layer {
  name: "relu6"
  type: "ReLU"
  bottom: "cccp4"
  top: "cccp4"
}
layer {
  name: "pool2"
  type: "Pooling"
  bottom: "cccp4"
  top: "pool2"
  pooling_param {
    pool: MAX
    kernel_size: 3
    stride: 2
  }
}
layer {
  name: "conv3"
  type: "Convolution"
  bottom: "pool2"
  top: "conv3"
  param {
    lr_mult: 1
    decay_mult: 1
  }
  param {
    lr_mult: 2
    decay_mult: 0
  }
  convolution_param {
    num_output: 384
    pad: 1
    kernel_size: 3
    stride: 1
    weight_filler {
      type: "gaussian"
      mean: 0
      std: 0.01
    }
    bias_filler {
      type: "constant"
      value: 0
    }
  }
}
layer {
  name: "relu7"
  type: "ReLU"
  bottom: "conv3"
  top: "conv3"
}
layer {
  name: "cccp5"
  type: "Convolution"
  bottom: "conv3"
  top: "cccp5"
  param {
    lr_mult: 1
    decay_mult: 1
  }
  param {
    lr_mult: 2
    decay_mult: 0
  }
  convolution_param {
    num_output: 384
    kernel_size: 1
    stride: 1
    weight_filler {
      type: "gaussian"
      mean: 0
      std: 0.05
    }
    bias_filler {
      type: "constant"
      value: 0
    }
  }
}
layer {
  name: "relu8"
  type: "ReLU"
  bottom: "cccp5"
  top: "cccp5"
}
layer {
  name: "cccp6"
  type: "Convolution"
  bottom: "cccp5"
  top: "cccp6"
  param {
    lr_mult: 1
    decay_mult: 1
  }
  param {
    lr_mult: 2
    decay_mult: 0
  }
  convolution_param {
    num_output: 384
    kernel_size: 1
    stride: 1
    weight_filler {
      type: "gaussian"
      mean: 0
      std: 0.05
    }
    bias_filler {
      type: "constant"
      value: 0
    }
  }
}
layer {
  name: "relu9"
  type: "ReLU"
  bottom: "cccp6"
  top: "cccp6"
}
layer {
  name: "pool3"
  type: "Pooling"
  bottom: "cccp6"
  top: "pool3"
  pooling_param {
    pool: MAX
    kernel_size: 3
    stride: 2
  }
}
layer {
  name: "drop"
  type: "Dropout"
  bottom: "pool3"
  top: "pool3"
  dropout_param {
    dropout_ratio: 0.5
  }
}
layer {
  name: "conv4-1024"
  type: "Convolution"
  bottom: "pool3"
  top: "conv4"
  param {
    lr_mult: 1
    decay_mult: 1
  }
  param {
    lr_mult: 2
    decay_mult: 0
  }
  convolution_param {
    num_output: 1024
    pad: 1
    kernel_size: 3
    stride: 1
    weight_filler {
      type: "gaussian"
      mean: 0
      std: 0.05
    }
    bias_filler {
      type: "constant"
      value: 0
    }
  }
}
layer {
  name: "relu10"
  type: "ReLU"
  bottom: "conv4"
  top: "conv4"
}
layer {
  name: "cccp7-1024"
  type: "Convolution"
  bottom: "conv4"
  top: "cccp7"
  param {
    lr_mult: 1
    decay_mult: 1
  }
  param {
    lr_mult: 2
    decay_mult: 0
  }
  convolution_param {
    num_output: 1024
    kernel_size: 1
    stride: 1
    weight_filler {
      type: "gaussian"
      mean: 0
      std: 0.05
    }
    bias_filler {
      type: "constant"
      value: 0
    }
  }
}
layer {
  name: "relu11"
  type: "ReLU"
  bottom: "cccp7"
  top: "cccp7"
}
layer {
  name: "cccp8-out"
  type: "Convolution"
  bottom: "cccp7"
  top: "cccp8-out"
  param {
    lr_mult: 1
    decay_mult: 1
  }
  param {
    lr_mult: 2
    decay_mult: 0
  }
  convolution_param {
    num_output: 43
    kernel_size: 1
    stride: 1
    weight_filler {
      type: "gaussian"
      mean: 0
      std: 0.01
    }
    bias_filler {
      type: "constant"
      value: 0
    }
  }
}
layer {
  name: "relu12"
  type: "ReLU"
  bottom: "cccp8-out"
  top: "cccp8-out"
}
layer {
  name: "pool4"
  type: "Pooling"
  bottom: "cccp8-out"
  top: "pool4"
  pooling_param {
    pool: AVE
    kernel_size: 6
    stride: 1
  }
}
layer {
  name: "loss"
  type: "SoftmaxWithLoss"
  bottom: "pool4"
  bottom: "label"
  include {
    phase: TRAIN
  }
}
I0617 12:13:49.016489 34209 layer_factory.hpp:77] Creating layer data
I0617 12:13:49.016548 34209 net.cpp:91] Creating Layer data
I0617 12:13:49.016564 34209 net.cpp:399] data -> data
I0617 12:13:49.016618 34209 net.cpp:399] data -> label
I0617 12:13:49.016649 34209 data_transformer.cpp:25] Loading mean file from: databases/base_mean.binaryproto
I0617 12:13:49.034853 34209 image_data_layer.cpp:38] Opening file data_training/train.txt
I0617 12:13:49.057586 34209 image_data_layer.cpp:53] A total of 35714 images.
I0617 12:13:49.058804 34209 image_data_layer.cpp:80] output data size: 64,3,224,224
I0617 12:13:49.183652 34209 net.cpp:141] Setting up data
I0617 12:13:49.183876 34209 net.cpp:148] Top shape: 64 3 224 224 (9633792)
I0617 12:13:49.183892 34209 net.cpp:148] Top shape: 64 (64)
I0617 12:13:49.183898 34209 net.cpp:156] Memory required for data: 38535424
I0617 12:13:49.183917 34209 layer_factory.hpp:77] Creating layer conv1
I0617 12:13:49.183980 34209 net.cpp:91] Creating Layer conv1
I0617 12:13:49.183996 34209 net.cpp:425] conv1 <- data
I0617 12:13:49.184021 34209 net.cpp:399] conv1 -> conv1
I0617 12:13:49.188318 34209 net.cpp:141] Setting up conv1
I0617 12:13:49.188345 34209 net.cpp:148] Top shape: 64 96 54 54 (17915904)
I0617 12:13:49.188355 34209 net.cpp:156] Memory required for data: 110199040
I0617 12:13:49.188387 34209 layer_factory.hpp:77] Creating layer relu0
I0617 12:13:49.188403 34209 net.cpp:91] Creating Layer relu0
I0617 12:13:49.188412 34209 net.cpp:425] relu0 <- conv1
I0617 12:13:49.188424 34209 net.cpp:386] relu0 -> conv1 (in-place)
I0617 12:13:49.188442 34209 net.cpp:141] Setting up relu0
I0617 12:13:49.188453 34209 net.cpp:148] Top shape: 64 96 54 54 (17915904)
I0617 12:13:49.188460 34209 net.cpp:156] Memory required for data: 181862656
I0617 12:13:49.188467 34209 layer_factory.hpp:77] Creating layer cccp1
I0617 12:13:49.188484 34209 net.cpp:91] Creating Layer cccp1
I0617 12:13:49.188493 34209 net.cpp:425] cccp1 <- conv1
I0617 12:13:49.188505 34209 net.cpp:399] cccp1 -> cccp1
I0617 12:13:49.197332 34209 net.cpp:141] Setting up cccp1
I0617 12:13:49.197367 34209 net.cpp:148] Top shape: 64 96 54 54 (17915904)
I0617 12:13:49.197379 34209 net.cpp:156] Memory required for data: 253526272
I0617 12:13:49.197401 34209 layer_factory.hpp:77] Creating layer relu1
I0617 12:13:49.197418 34209 net.cpp:91] Creating Layer relu1
I0617 12:13:49.197429 34209 net.cpp:425] relu1 <- cccp1
I0617 12:13:49.197444 34209 net.cpp:386] relu1 -> cccp1 (in-place)
I0617 12:13:49.197461 34209 net.cpp:141] Setting up relu1
I0617 12:13:49.197475 34209 net.cpp:148] Top shape: 64 96 54 54 (17915904)
I0617 12:13:49.197484 34209 net.cpp:156] Memory required for data: 325189888
I0617 12:13:49.197494 34209 layer_factory.hpp:77] Creating layer cccp2
I0617 12:13:49.197513 34209 net.cpp:91] Creating Layer cccp2
I0617 12:13:49.197525 34209 net.cpp:425] cccp2 <- cccp1
I0617 12:13:49.197540 34209 net.cpp:399] cccp2 -> cccp2
I0617 12:13:49.198710 34209 net.cpp:141] Setting up cccp2
I0617 12:13:49.198736 34209 net.cpp:148] Top shape: 64 96 54 54 (17915904)
I0617 12:13:49.198746 34209 net.cpp:156] Memory required for data: 396853504
I0617 12:13:49.198765 34209 layer_factory.hpp:77] Creating layer relu2
I0617 12:13:49.198781 34209 net.cpp:91] Creating Layer relu2
I0617 12:13:49.198791 34209 net.cpp:425] relu2 <- cccp2
I0617 12:13:49.198806 34209 net.cpp:386] relu2 -> cccp2 (in-place)
I0617 12:13:49.198822 34209 net.cpp:141] Setting up relu2
I0617 12:13:49.198835 34209 net.cpp:148] Top shape: 64 96 54 54 (17915904)
I0617 12:13:49.198844 34209 net.cpp:156] Memory required for data: 468517120
I0617 12:13:49.198854 34209 layer_factory.hpp:77] Creating layer pool1
I0617 12:13:49.198875 34209 net.cpp:91] Creating Layer pool1
I0617 12:13:49.198885 34209 net.cpp:425] pool1 <- cccp2
I0617 12:13:49.198899 34209 net.cpp:399] pool1 -> pool1
I0617 12:13:49.198999 34209 net.cpp:141] Setting up pool1
I0617 12:13:49.199021 34209 net.cpp:148] Top shape: 64 96 27 27 (4478976)
I0617 12:13:49.199030 34209 net.cpp:156] Memory required for data: 486433024
I0617 12:13:49.199041 34209 layer_factory.hpp:77] Creating layer conv2
I0617 12:13:49.199064 34209 net.cpp:91] Creating Layer conv2
I0617 12:13:49.199075 34209 net.cpp:425] conv2 <- pool1
I0617 12:13:49.199092 34209 net.cpp:399] conv2 -> conv2
I0617 12:13:49.239869 34209 net.cpp:141] Setting up conv2
I0617 12:13:49.239919 34209 net.cpp:148] Top shape: 64 256 27 27 (11943936)
I0617 12:13:49.239928 34209 net.cpp:156] Memory required for data: 534208768
I0617 12:13:49.239954 34209 layer_factory.hpp:77] Creating layer relu3
I0617 12:13:49.239987 34209 net.cpp:91] Creating Layer relu3
I0617 12:13:49.239998 34209 net.cpp:425] relu3 <- conv2
I0617 12:13:49.240016 34209 net.cpp:386] relu3 -> conv2 (in-place)
I0617 12:13:49.240036 34209 net.cpp:141] Setting up relu3
I0617 12:13:49.240046 34209 net.cpp:148] Top shape: 64 256 27 27 (11943936)
I0617 12:13:49.240053 34209 net.cpp:156] Memory required for data: 581984512
I0617 12:13:49.240061 34209 layer_factory.hpp:77] Creating layer cccp3
I0617 12:13:49.240079 34209 net.cpp:91] Creating Layer cccp3
I0617 12:13:49.240087 34209 net.cpp:425] cccp3 <- conv2
I0617 12:13:49.240099 34209 net.cpp:399] cccp3 -> cccp3
I0617 12:13:49.244400 34209 net.cpp:141] Setting up cccp3
I0617 12:13:49.244423 34209 net.cpp:148] Top shape: 64 256 27 27 (11943936)
I0617 12:13:49.244432 34209 net.cpp:156] Memory required for data: 629760256
I0617 12:13:49.244451 34209 layer_factory.hpp:77] Creating layer relu5
I0617 12:13:49.244464 34209 net.cpp:91] Creating Layer relu5
I0617 12:13:49.244472 34209 net.cpp:425] relu5 <- cccp3
I0617 12:13:49.244483 34209 net.cpp:386] relu5 -> cccp3 (in-place)
I0617 12:13:49.244496 34209 net.cpp:141] Setting up relu5
I0617 12:13:49.244506 34209 net.cpp:148] Top shape: 64 256 27 27 (11943936)
I0617 12:13:49.244513 34209 net.cpp:156] Memory required for data: 677536000
I0617 12:13:49.244520 34209 layer_factory.hpp:77] Creating layer cccp4
I0617 12:13:49.244535 34209 net.cpp:91] Creating Layer cccp4
I0617 12:13:49.244544 34209 net.cpp:425] cccp4 <- cccp3
I0617 12:13:49.244556 34209 net.cpp:399] cccp4 -> cccp4
I0617 12:13:49.248906 34209 net.cpp:141] Setting up cccp4
I0617 12:13:49.248930 34209 net.cpp:148] Top shape: 64 256 27 27 (11943936)
I0617 12:13:49.248939 34209 net.cpp:156] Memory required for data: 725311744
I0617 12:13:49.248950 34209 layer_factory.hpp:77] Creating layer relu6
I0617 12:13:49.248963 34209 net.cpp:91] Creating Layer relu6
I0617 12:13:49.248971 34209 net.cpp:425] relu6 <- cccp4
I0617 12:13:49.248982 34209 net.cpp:386] relu6 -> cccp4 (in-place)
I0617 12:13:49.248996 34209 net.cpp:141] Setting up relu6
I0617 12:13:49.249006 34209 net.cpp:148] Top shape: 64 256 27 27 (11943936)
I0617 12:13:49.249012 34209 net.cpp:156] Memory required for data: 773087488
I0617 12:13:49.249019 34209 layer_factory.hpp:77] Creating layer pool2
I0617 12:13:49.249030 34209 net.cpp:91] Creating Layer pool2
I0617 12:13:49.249037 34209 net.cpp:425] pool2 <- cccp4
I0617 12:13:49.249048 34209 net.cpp:399] pool2 -> pool2
I0617 12:13:49.249119 34209 net.cpp:141] Setting up pool2
I0617 12:13:49.249137 34209 net.cpp:148] Top shape: 64 256 13 13 (2768896)
I0617 12:13:49.249145 34209 net.cpp:156] Memory required for data: 784163072
I0617 12:13:49.249156 34209 layer_factory.hpp:77] Creating layer conv3
I0617 12:13:49.249174 34209 net.cpp:91] Creating Layer conv3
I0617 12:13:49.249183 34209 net.cpp:425] conv3 <- pool2
I0617 12:13:49.249197 34209 net.cpp:399] conv3 -> conv3
I0617 12:13:49.304925 34209 net.cpp:141] Setting up conv3
I0617 12:13:49.304967 34209 net.cpp:148] Top shape: 64 384 13 13 (4153344)
I0617 12:13:49.304975 34209 net.cpp:156] Memory required for data: 800776448
I0617 12:13:49.304989 34209 layer_factory.hpp:77] Creating layer relu7
I0617 12:13:49.305012 34209 net.cpp:91] Creating Layer relu7
I0617 12:13:49.305022 34209 net.cpp:425] relu7 <- conv3
I0617 12:13:49.305034 34209 net.cpp:386] relu7 -> conv3 (in-place)
I0617 12:13:49.305050 34209 net.cpp:141] Setting up relu7
I0617 12:13:49.305060 34209 net.cpp:148] Top shape: 64 384 13 13 (4153344)
I0617 12:13:49.305071 34209 net.cpp:156] Memory required for data: 817389824
I0617 12:13:49.305079 34209 layer_factory.hpp:77] Creating layer cccp5
I0617 12:13:49.305136 34209 net.cpp:91] Creating Layer cccp5
I0617 12:13:49.305150 34209 net.cpp:425] cccp5 <- conv3
I0617 12:13:49.305166 34209 net.cpp:399] cccp5 -> cccp5
I0617 12:13:49.315112 34209 net.cpp:141] Setting up cccp5
I0617 12:13:49.315137 34209 net.cpp:148] Top shape: 64 384 13 13 (4153344)
I0617 12:13:49.315145 34209 net.cpp:156] Memory required for data: 834003200
I0617 12:13:49.315176 34209 layer_factory.hpp:77] Creating layer relu8
I0617 12:13:49.315188 34209 net.cpp:91] Creating Layer relu8
I0617 12:13:49.315196 34209 net.cpp:425] relu8 <- cccp5
I0617 12:13:49.315210 34209 net.cpp:386] relu8 -> cccp5 (in-place)
I0617 12:13:49.315223 34209 net.cpp:141] Setting up relu8
I0617 12:13:49.315234 34209 net.cpp:148] Top shape: 64 384 13 13 (4153344)
I0617 12:13:49.315240 34209 net.cpp:156] Memory required for data: 850616576
I0617 12:13:49.315248 34209 layer_factory.hpp:77] Creating layer cccp6
I0617 12:13:49.315265 34209 net.cpp:91] Creating Layer cccp6
I0617 12:13:49.315274 34209 net.cpp:425] cccp6 <- cccp5
I0617 12:13:49.315285 34209 net.cpp:399] cccp6 -> cccp6
I0617 12:13:49.325276 34209 net.cpp:141] Setting up cccp6
I0617 12:13:49.325300 34209 net.cpp:148] Top shape: 64 384 13 13 (4153344)
I0617 12:13:49.325307 34209 net.cpp:156] Memory required for data: 867229952
I0617 12:13:49.325326 34209 layer_factory.hpp:77] Creating layer relu9
I0617 12:13:49.325342 34209 net.cpp:91] Creating Layer relu9
I0617 12:13:49.325350 34209 net.cpp:425] relu9 <- cccp6
I0617 12:13:49.325361 34209 net.cpp:386] relu9 -> cccp6 (in-place)
I0617 12:13:49.325374 34209 net.cpp:141] Setting up relu9
I0617 12:13:49.325383 34209 net.cpp:148] Top shape: 64 384 13 13 (4153344)
I0617 12:13:49.325390 34209 net.cpp:156] Memory required for data: 883843328
I0617 12:13:49.325397 34209 layer_factory.hpp:77] Creating layer pool3
I0617 12:13:49.325408 34209 net.cpp:91] Creating Layer pool3
I0617 12:13:49.325415 34209 net.cpp:425] pool3 <- cccp6
I0617 12:13:49.325428 34209 net.cpp:399] pool3 -> pool3
I0617 12:13:49.325495 34209 net.cpp:141] Setting up pool3
I0617 12:13:49.325513 34209 net.cpp:148] Top shape: 64 384 6 6 (884736)
I0617 12:13:49.325521 34209 net.cpp:156] Memory required for data: 887382272
I0617 12:13:49.325528 34209 layer_factory.hpp:77] Creating layer drop
I0617 12:13:49.325546 34209 net.cpp:91] Creating Layer drop
I0617 12:13:49.325554 34209 net.cpp:425] drop <- pool3
I0617 12:13:49.325564 34209 net.cpp:386] drop -> pool3 (in-place)
I0617 12:13:49.325618 34209 net.cpp:141] Setting up drop
I0617 12:13:49.325634 34209 net.cpp:148] Top shape: 64 384 6 6 (884736)
I0617 12:13:49.325640 34209 net.cpp:156] Memory required for data: 890921216
I0617 12:13:49.325649 34209 layer_factory.hpp:77] Creating layer conv4-1024
I0617 12:13:49.325666 34209 net.cpp:91] Creating Layer conv4-1024
I0617 12:13:49.325675 34209 net.cpp:425] conv4-1024 <- pool3
I0617 12:13:49.325692 34209 net.cpp:399] conv4-1024 -> conv4
I0617 12:13:49.547245 34209 net.cpp:141] Setting up conv4-1024
I0617 12:13:49.547307 34209 net.cpp:148] Top shape: 64 1024 6 6 (2359296)
I0617 12:13:49.547315 34209 net.cpp:156] Memory required for data: 900358400
I0617 12:13:49.547333 34209 layer_factory.hpp:77] Creating layer relu10
I0617 12:13:49.547356 34209 net.cpp:91] Creating Layer relu10
I0617 12:13:49.547366 34209 net.cpp:425] relu10 <- conv4
I0617 12:13:49.547384 34209 net.cpp:386] relu10 -> conv4 (in-place)
I0617 12:13:49.547404 34209 net.cpp:141] Setting up relu10
I0617 12:13:49.547413 34209 net.cpp:148] Top shape: 64 1024 6 6 (2359296)
I0617 12:13:49.547420 34209 net.cpp:156] Memory required for data: 909795584
I0617 12:13:49.547428 34209 layer_factory.hpp:77] Creating layer cccp7-1024
I0617 12:13:49.547451 34209 net.cpp:91] Creating Layer cccp7-1024
I0617 12:13:49.547461 34209 net.cpp:425] cccp7-1024 <- conv4
I0617 12:13:49.547480 34209 net.cpp:399] cccp7-1024 -> cccp7
I0617 12:13:49.613498 34209 net.cpp:141] Setting up cccp7-1024
I0617 12:13:49.613535 34209 net.cpp:148] Top shape: 64 1024 6 6 (2359296)
I0617 12:13:49.613543 34209 net.cpp:156] Memory required for data: 919232768
I0617 12:13:49.613559 34209 layer_factory.hpp:77] Creating layer relu11
I0617 12:13:49.613574 34209 net.cpp:91] Creating Layer relu11
I0617 12:13:49.613582 34209 net.cpp:425] relu11 <- cccp7
I0617 12:13:49.613595 34209 net.cpp:386] relu11 -> cccp7 (in-place)
I0617 12:13:49.613610 34209 net.cpp:141] Setting up relu11
I0617 12:13:49.613620 34209 net.cpp:148] Top shape: 64 1024 6 6 (2359296)
I0617 12:13:49.613649 34209 net.cpp:156] Memory required for data: 928669952
I0617 12:13:49.613657 34209 layer_factory.hpp:77] Creating layer cccp8-out
I0617 12:13:49.613677 34209 net.cpp:91] Creating Layer cccp8-out
I0617 12:13:49.613687 34209 net.cpp:425] cccp8-out <- cccp7
I0617 12:13:49.613700 34209 net.cpp:399] cccp8-out -> cccp8-out
I0617 12:13:49.616669 34209 net.cpp:141] Setting up cccp8-out
I0617 12:13:49.616691 34209 net.cpp:148] Top shape: 64 43 6 6 (99072)
I0617 12:13:49.616698 34209 net.cpp:156] Memory required for data: 929066240
I0617 12:13:49.616710 34209 layer_factory.hpp:77] Creating layer relu12
I0617 12:13:49.616725 34209 net.cpp:91] Creating Layer relu12
I0617 12:13:49.616734 34209 net.cpp:425] relu12 <- cccp8-out
I0617 12:13:49.616751 34209 net.cpp:386] relu12 -> cccp8-out (in-place)
I0617 12:13:49.616765 34209 net.cpp:141] Setting up relu12
I0617 12:13:49.616775 34209 net.cpp:148] Top shape: 64 43 6 6 (99072)
I0617 12:13:49.616781 34209 net.cpp:156] Memory required for data: 929462528
I0617 12:13:49.616789 34209 layer_factory.hpp:77] Creating layer pool4
I0617 12:13:49.616801 34209 net.cpp:91] Creating Layer pool4
I0617 12:13:49.616808 34209 net.cpp:425] pool4 <- cccp8-out
I0617 12:13:49.616822 34209 net.cpp:399] pool4 -> pool4
I0617 12:13:49.616869 34209 net.cpp:141] Setting up pool4
I0617 12:13:49.616889 34209 net.cpp:148] Top shape: 64 43 1 1 (2752)
I0617 12:13:49.616896 34209 net.cpp:156] Memory required for data: 929473536
I0617 12:13:49.616904 34209 layer_factory.hpp:77] Creating layer loss
I0617 12:13:49.616921 34209 net.cpp:91] Creating Layer loss
I0617 12:13:49.616930 34209 net.cpp:425] loss <- pool4
I0617 12:13:49.616940 34209 net.cpp:425] loss <- label
I0617 12:13:49.616957 34209 net.cpp:399] loss -> (automatic)
I0617 12:13:49.616979 34209 layer_factory.hpp:77] Creating layer loss
…
I0617 12:13:49.618626 34209 net.cpp:313] The NetState phase (1) differed from the phase (0) specified by a rule in layer data
I0617 12:13:49.618665 34209 net.cpp:313] The NetState phase (1) differed from the phase (0) specified by a rule in layer loss
I0617 12:13:49.619002 34209 net.cpp:49] Initializing net from parameters: 
name: "rec_placas"
state {
  phase: TEST
}
layer {
  name: "data"
  type: "ImageData"
  top: "data"
  top: "label"
  include {
    phase: TEST
  }
  transform_param {
    mirror: false
    crop_size: 224
    mean_file: "databases/base_mean.binaryproto"
  }
  image_data_param {
    source: "data_training/val.txt"
    batch_size: 89
  }
}
layer {
  name: "conv1"
  type: "Convolution"
  bottom: "data"
  top: "conv1"
  param {
    lr_mult: 1
    decay_mult: 1
  }
  param {
    lr_mult: 2
    decay_mult: 0
  }
  convolution_param {
    num_output: 96
    kernel_size: 11
    stride: 4
    weight_filler {
      type: "gaussian"
      mean: 0
      std: 0.01
    }
    bias_filler {
      type: "constant"
      value: 0
    }
  }
}
layer {
  name: "relu0"
  type: "ReLU"
  bottom: "conv1"
  top: "conv1"
}
layer {
  name: "cccp1"
  type: "Convolution"
  bottom: "conv1"
  top: "cccp1"
  param {
    lr_mult: 1
    decay_mult: 1
  }
  param {
    lr_mult: 2
    decay_mult: 0
  }
  convolution_param {
    num_output: 96
    kernel_size: 1
    stride: 1
    weight_filler {
      type: "gaussian"
      mean: 0
      std: 0.05
    }
    bias_filler {
      type: "constant"
      value: 0
    }
  }
}
layer {
  name: "relu1"
  type: "ReLU"
  bottom: "cccp1"
  top: "cccp1"
}
layer {
  name: "cccp2"
  type: "Convolution"
  bottom: "cccp1"
  top: "cccp2"
  param {
    lr_mult: 1
    decay_mult: 1
  }
  param {
    lr_mult: 2
    decay_mult: 0
  }
  convolution_param {
    num_output: 96
    kernel_size: 1
    stride: 1
    weight_filler {
      type: "gaussian"
      mean: 0
      std: 0.05
    }
    bias_filler {
      type: "constant"
      value: 0
    }
  }
}
layer {
  name: "relu2"
  type: "ReLU"
  bottom: "cccp2"
  top: "cccp2"
}
layer {
  name: "pool1"
  type: "Pooling"
  bottom: "cccp2"
  top: "pool1"
  pooling_param {
    pool: MAX
    kernel_size: 3
    stride: 2
  }
}
layer {
  name: "conv2"
  type: "Convolution"
  bottom: "pool1"
  top: "conv2"
  param {
    lr_mult: 1
    decay_mult: 1
  }
  param {
    lr_mult: 2
    decay_mult: 0
  }
  convolution_param {
    num_output: 256
    pad: 2
    kernel_size: 5
    stride: 1
    weight_filler {
      type: "gaussian"
      mean: 0
      std: 0.05
    }
    bias_filler {
      type: "constant"
      value: 0
    }
  }
}
layer {
  name: "relu3"
  type: "ReLU"
  bottom: "conv2"
  top: "conv2"
}
layer {
  name: "cccp3"
  type: "Convolution"
  bottom: "conv2"
  top: "cccp3"
  param {
    lr_mult: 1
    decay_mult: 1
  }
  param {
    lr_mult: 2
    decay_mult: 0
  }
  convolution_param {
    num_output: 256
    kernel_size: 1
    stride: 1
    weight_filler {
      type: "gaussian"
      mean: 0
      std: 0.05
    }
    bias_filler {
      type: "constant"
      value: 0
    }
  }
}
layer {
  name: "relu5"
  type: "ReLU"
  bottom: "cccp3"
  top: "cccp3"
}
layer {
  name: "cccp4"
  type: "Convolution"
  bottom: "cccp3"
  top: "cccp4"
  param {
    lr_mult: 1
    decay_mult: 1
  }
  param {
    lr_mult: 2
    decay_mult: 0
  }
  convolution_param {
    num_output: 256
    kernel_size: 1
    stride: 1
    weight_filler {
      type: "gaussian"
      mean: 0
      std: 0.05
    }
    bias_filler {
      type: "constant"
      value: 0
    }
  }
}
layer {
  name: "relu6"
  type: "ReLU"
  bottom: "cccp4"
  top: "cccp4"
}
layer {
  name: "pool2"
  type: "Pooling"
  bottom: "cccp4"
  top: "pool2"
  pooling_param {
    pool: MAX
    kernel_size: 3
    stride: 2
  }
}
layer {
  name: "conv3"
  type: "Convolution"
  bottom: "pool2"
  top: "conv3"
  param {
    lr_mult: 1
    decay_mult: 1
  }
  param {
    lr_mult: 2
    decay_mult: 0
  }
  convolution_param {
    num_output: 384
    pad: 1
    kernel_size: 3
    stride: 1
    weight_filler {
      type: "gaussian"
      mean: 0
      std: 0.01
    }
    bias_filler {
      type: "constant"
      value: 0
    }
  }
}
layer {
  name: "relu7"
  type: "ReLU"
  bottom: "conv3"
  top: "conv3"
}
layer {
  name: "cccp5"
  type: "Convolution"
  bottom: "conv3"
  top: "cccp5"
  param {
    lr_mult: 1
    decay_mult: 1
  }
  param {
    lr_mult: 2
    decay_mult: 0
  }
  convolution_param {
    num_output: 384
    kernel_size: 1
    stride: 1
    weight_filler {
      type: "gaussian"
      mean: 0
      std: 0.05
    }
    bias_filler {
      type: "constant"
      value: 0
    }
  }
}
layer {
  name: "relu8"
  type: "ReLU"
  bottom: "cccp5"
  top: "cccp5"
}
layer {
  name: "cccp6"
  type: "Convolution"
  bottom: "cccp5"
  top: "cccp6"
  param {
    lr_mult: 1
    decay_mult: 1
  }
  param {
    lr_mult: 2
    decay_mult: 0
  }
  convolution_param {
    num_output: 384
    kernel_size: 1
    stride: 1
    weight_filler {
      type: "gaussian"
      mean: 0
      std: 0.05
    }
    bias_filler {
      type: "constant"
      value: 0
    }
  }
}
layer {
  name: "relu9"
  type: "ReLU"
  bottom: "cccp6"
  top: "cccp6"
}
layer {
  name: "pool3"
  type: "Pooling"
  bottom: "cccp6"
  top: "pool3"
  pooling_param {
    pool: MAX
    kernel_size: 3
    stride: 2
  }
}
layer {
  name: "drop"
  type: "Dropout"
  bottom: "pool3"
  top: "pool3"
  dropout_param {
    dropout_ratio: 0.5
  }
}
layer {
  name: "conv4-1024"
  type: "Convolution"
  bottom: "pool3"
  top: "conv4"
  param {
    lr_mult: 1
    decay_mult: 1
  }
  param {
    lr_mult: 2
    decay_mult: 0
  }
  convolution_param {
    num_output: 1024
    pad: 1
    kernel_size: 3
    stride: 1
    weight_filler {
      type: "gaussian"
      mean: 0
      std: 0.05
    }
    bias_filler {
      type: "constant"
      value: 0
    }
  }
}
layer {
  name: "relu10"
  type: "ReLU"
  bottom: "conv4"
  top: "conv4"
}
layer {
  name: "cccp7-1024"
  type: "Convolution"
  bottom: "conv4"
  top: "cccp7"
  param {
    lr_mult: 1
    decay_mult: 1
  }
  param {
    lr_mult: 2
    decay_mult: 0
  }
  convolution_param {
    num_output: 1024
    kernel_size: 1
    stride: 1
    weight_filler {
      type: "gaussian"
      mean: 0
      std: 0.05
    }
    bias_filler {
      type: "constant"
      value: 0
    }
  }
}
layer {
  name: "relu11"
  type: "ReLU"
  bottom: "cccp7"
  top: "cccp7"
}
layer {
  name: "cccp8-out"
  type: "Convolution"
  bottom: "cccp7"
  top: "cccp8-out"
  param {
    lr_mult: 1
    decay_mult: 1
  }
  param {
    lr_mult: 2
    decay_mult: 0
  }
  convolution_param {
    num_output: 43
    kernel_size: 1
    stride: 1
    weight_filler {
      type: "gaussian"
      mean: 0
      std: 0.01
    }
    bias_filler {
      type: "constant"
      value: 0
    }
  }
}
layer {
  name: "relu12"
  type: "ReLU"
  bottom: "cccp8-out"
  top: "cccp8-out"
}
layer {
  name: "pool4"
  type: "Pooling"
  bottom: "cccp8-out"
  top: "pool4"
  pooling_param {
    pool: AVE
    kernel_size: 6
    stride: 1
  }
}
layer {
  name: "accuracy"
  type: "Accuracy"
  bottom: "pool4"
  bottom: "label"
  top: "accuracy"
  include {
    phase: TEST
  }
}
I0617 12:13:49.619171 34209 layer_factory.hpp:77] Creating layer data
I0617 12:13:49.619200 34209 net.cpp:91] Creating Layer data
I0617 12:13:49.619211 34209 net.cpp:399] data -> data
I0617 12:13:49.619227 34209 net.cpp:399] data -> label
I0617 12:13:49.619243 34209 data_transformer.cpp:25] Loading mean file from: databases/base_mean.binaryproto
I0617 12:13:49.623467 34209 image_data_layer.cpp:38] Opening file data_training/val.txt
I0617 12:13:49.625656 34209 image_data_layer.cpp:53] A total of 3538 images.
I0617 12:13:49.626762 34209 image_data_layer.cpp:80] output data size: 89,3,224,224
I0617 12:13:49.794821 34209 net.cpp:141] Setting up data
I0617 12:13:49.794889 34209 net.cpp:148] Top shape: 89 3 224 224 (13396992)
I0617 12:13:49.794903 34209 net.cpp:148] Top shape: 89 (89)
I0617 12:13:49.794911 34209 net.cpp:156] Memory required for data: 53588324
I0617 12:13:49.794927 34209 layer_factory.hpp:77] Creating layer conv1
I0617 12:13:49.794963 34209 net.cpp:91] Creating Layer conv1
I0617 12:13:49.794972 34209 net.cpp:425] conv1 <- data
I0617 12:13:49.794989 34209 net.cpp:399] conv1 -> conv1
I0617 12:13:49.797544 34209 net.cpp:141] Setting up conv1
I0617 12:13:49.797566 34209 net.cpp:148] Top shape: 89 96 54 54 (24914304)
I0617 12:13:49.797574 34209 net.cpp:156] Memory required for data: 153245540
I0617 12:13:49.797593 34209 layer_factory.hpp:77] Creating layer relu0
I0617 12:13:49.797610 34209 net.cpp:91] Creating Layer relu0
I0617 12:13:49.797617 34209 net.cpp:425] relu0 <- conv1
I0617 12:13:49.797629 34209 net.cpp:386] relu0 -> conv1 (in-place)
I0617 12:13:49.797642 34209 net.cpp:141] Setting up relu0
I0617 12:13:49.797652 34209 net.cpp:148] Top shape: 89 96 54 54 (24914304)
I0617 12:13:49.797659 34209 net.cpp:156] Memory required for data: 252902756
I0617 12:13:49.797667 34209 layer_factory.hpp:77] Creating layer cccp1
I0617 12:13:49.797682 34209 net.cpp:91] Creating Layer cccp1
I0617 12:13:49.797689 34209 net.cpp:425] cccp1 <- conv1
I0617 12:13:49.797703 34209 net.cpp:399] cccp1 -> cccp1
I0617 12:13:49.798620 34209 net.cpp:141] Setting up cccp1
I0617 12:13:49.798640 34209 net.cpp:148] Top shape: 89 96 54 54 (24914304)
I0617 12:13:49.798647 34209 net.cpp:156] Memory required for data: 352559972
I0617 12:13:49.798662 34209 layer_factory.hpp:77] Creating layer relu1
I0617 12:13:49.798676 34209 net.cpp:91] Creating Layer relu1
I0617 12:13:49.798684 34209 net.cpp:425] relu1 <- cccp1
I0617 12:13:49.798696 34209 net.cpp:386] relu1 -> cccp1 (in-place)
I0617 12:13:49.798707 34209 net.cpp:141] Setting up relu1
I0617 12:13:49.798717 34209 net.cpp:148] Top shape: 89 96 54 54 (24914304)
I0617 12:13:49.798724 34209 net.cpp:156] Memory required for data: 452217188
I0617 12:13:49.798732 34209 layer_factory.hpp:77] Creating layer cccp2
I0617 12:13:49.798746 34209 net.cpp:91] Creating Layer cccp2
I0617 12:13:49.798754 34209 net.cpp:425] cccp2 <- cccp1
I0617 12:13:49.798766 34209 net.cpp:399] cccp2 -> cccp2
I0617 12:13:49.809922 34209 net.cpp:141] Setting up cccp2
I0617 12:13:49.809963 34209 net.cpp:148] Top shape: 89 96 54 54 (24914304)
I0617 12:13:49.809978 34209 net.cpp:156] Memory required for data: 551874404
I0617 12:13:49.810004 34209 layer_factory.hpp:77] Creating layer relu2
I0617 12:13:49.810024 34209 net.cpp:91] Creating Layer relu2
I0617 12:13:49.810039 34209 net.cpp:425] relu2 <- cccp2
I0617 12:13:49.810057 34209 net.cpp:386] relu2 -> cccp2 (in-place)
I0617 12:13:49.810081 34209 net.cpp:141] Setting up relu2
I0617 12:13:49.810097 34209 net.cpp:148] Top shape: 89 96 54 54 (24914304)
I0617 12:13:49.810109 34209 net.cpp:156] Memory required for data: 651531620
I0617 12:13:49.810122 34209 layer_factory.hpp:77] Creating layer pool1
I0617 12:13:49.810142 34209 net.cpp:91] Creating Layer pool1
I0617 12:13:49.810154 34209 net.cpp:425] pool1 <- cccp2
I0617 12:13:49.810173 34209 net.cpp:399] pool1 -> pool1
I0617 12:13:49.810298 34209 net.cpp:141] Setting up pool1
I0617 12:13:49.810324 34209 net.cpp:148] Top shape: 89 96 27 27 (6228576)
I0617 12:13:49.810338 34209 net.cpp:156] Memory required for data: 676445924
I0617 12:13:49.810350 34209 layer_factory.hpp:77] Creating layer conv2
I0617 12:13:49.810379 34209 net.cpp:91] Creating Layer conv2
I0617 12:13:49.810392 34209 net.cpp:425] conv2 <- pool1
I0617 12:13:49.810415 34209 net.cpp:399] conv2 -> conv2
I0617 12:13:49.850179 34209 net.cpp:141] Setting up conv2
I0617 12:13:49.850208 34209 net.cpp:148] Top shape: 89 256 27 27 (16609536)
I0617 12:13:49.850215 34209 net.cpp:156] Memory required for data: 742884068
I0617 12:13:49.850239 34209 layer_factory.hpp:77] Creating layer relu3
I0617 12:13:49.850265 34209 net.cpp:91] Creating Layer relu3
I0617 12:13:49.850273 34209 net.cpp:425] relu3 <- conv2
I0617 12:13:49.850286 34209 net.cpp:386] relu3 -> conv2 (in-place)
I0617 12:13:49.850299 34209 net.cpp:141] Setting up relu3
I0617 12:13:49.850309 34209 net.cpp:148] Top shape: 89 256 27 27 (16609536)
I0617 12:13:49.850317 34209 net.cpp:156] Memory required for data: 809322212
I0617 12:13:49.850323 34209 layer_factory.hpp:77] Creating layer cccp3
I0617 12:13:49.850339 34209 net.cpp:91] Creating Layer cccp3
I0617 12:13:49.850347 34209 net.cpp:425] cccp3 <- conv2
I0617 12:13:49.850359 34209 net.cpp:399] cccp3 -> cccp3
I0617 12:13:49.855414 34209 net.cpp:141] Setting up cccp3
I0617 12:13:49.855442 34209 net.cpp:148] Top shape: 89 256 27 27 (16609536)
I0617 12:13:49.855448 34209 net.cpp:156] Memory required for data: 875760356
I0617 12:13:49.855469 34209 layer_factory.hpp:77] Creating layer relu5
I0617 12:13:49.855482 34209 net.cpp:91] Creating Layer relu5
I0617 12:13:49.855490 34209 net.cpp:425] relu5 <- cccp3
I0617 12:13:49.855502 34209 net.cpp:386] relu5 -> cccp3 (in-place)
I0617 12:13:49.855515 34209 net.cpp:141] Setting up relu5
I0617 12:13:49.855525 34209 net.cpp:148] Top shape: 89 256 27 27 (16609536)
I0617 12:13:49.855532 34209 net.cpp:156] Memory required for data: 942198500
I0617 12:13:49.855540 34209 layer_factory.hpp:77] Creating layer cccp4
I0617 12:13:49.855554 34209 net.cpp:91] Creating Layer cccp4
I0617 12:13:49.855562 34209 net.cpp:425] cccp4 <- cccp3
I0617 12:13:49.855574 34209 net.cpp:399] cccp4 -> cccp4
I0617 12:13:49.859863 34209 net.cpp:141] Setting up cccp4
I0617 12:13:49.859886 34209 net.cpp:148] Top shape: 89 256 27 27 (16609536)
I0617 12:13:49.859894 34209 net.cpp:156] Memory required for data: 1008636644
I0617 12:13:49.859905 34209 layer_factory.hpp:77] Creating layer relu6
I0617 12:13:49.859917 34209 net.cpp:91] Creating Layer relu6
I0617 12:13:49.859925 34209 net.cpp:425] relu6 <- cccp4
I0617 12:13:49.859941 34209 net.cpp:386] relu6 -> cccp4 (in-place)
I0617 12:13:49.859956 34209 net.cpp:141] Setting up relu6
I0617 12:13:49.859968 34209 net.cpp:148] Top shape: 89 256 27 27 (16609536)
I0617 12:13:49.859977 34209 net.cpp:156] Memory required for data: 1075074788
I0617 12:13:49.859984 34209 layer_factory.hpp:77] Creating layer pool2
I0617 12:13:49.859997 34209 net.cpp:91] Creating Layer pool2
I0617 12:13:49.860004 34209 net.cpp:425] pool2 <- cccp4
I0617 12:13:49.860020 34209 net.cpp:399] pool2 -> pool2
I0617 12:13:49.860090 34209 net.cpp:141] Setting up pool2
I0617 12:13:49.860106 34209 net.cpp:148] Top shape: 89 256 13 13 (3850496)
I0617 12:13:49.860113 34209 net.cpp:156] Memory required for data: 1090476772
I0617 12:13:49.860121 34209 layer_factory.hpp:77] Creating layer conv3
I0617 12:13:49.860138 34209 net.cpp:91] Creating Layer conv3
I0617 12:13:49.860147 34209 net.cpp:425] conv3 <- pool2
I0617 12:13:49.860162 34209 net.cpp:399] conv3 -> conv3
I0617 12:13:49.916062 34209 net.cpp:141] Setting up conv3
I0617 12:13:49.916108 34209 net.cpp:148] Top shape: 89 384 13 13 (5775744)
I0617 12:13:49.916116 34209 net.cpp:156] Memory required for data: 1113579748
I0617 12:13:49.916131 34209 layer_factory.hpp:77] Creating layer relu7
I0617 12:13:49.916155 34209 net.cpp:91] Creating Layer relu7
I0617 12:13:49.916165 34209 net.cpp:425] relu7 <- conv3
I0617 12:13:49.916182 34209 net.cpp:386] relu7 -> conv3 (in-place)
I0617 12:13:49.916200 34209 net.cpp:141] Setting up relu7
I0617 12:13:49.916210 34209 net.cpp:148] Top shape: 89 384 13 13 (5775744)
I0617 12:13:49.916218 34209 net.cpp:156] Memory required for data: 1136682724
I0617 12:13:49.916224 34209 layer_factory.hpp:77] Creating layer cccp5
I0617 12:13:49.916241 34209 net.cpp:91] Creating Layer cccp5
I0617 12:13:49.916249 34209 net.cpp:425] cccp5 <- conv3
I0617 12:13:49.916263 34209 net.cpp:399] cccp5 -> cccp5
I0617 12:13:49.926393 34209 net.cpp:141] Setting up cccp5
I0617 12:13:49.926417 34209 net.cpp:148] Top shape: 89 384 13 13 (5775744)
I0617 12:13:49.926432 34209 net.cpp:156] Memory required for data: 1159785700
I0617 12:13:49.926455 34209 layer_factory.hpp:77] Creating layer relu8
I0617 12:13:49.926470 34209 net.cpp:91] Creating Layer relu8
I0617 12:13:49.926479 34209 net.cpp:425] relu8 <- cccp5
I0617 12:13:49.926489 34209 net.cpp:386] relu8 -> cccp5 (in-place)
I0617 12:13:49.926503 34209 net.cpp:141] Setting up relu8
I0617 12:13:49.926513 34209 net.cpp:148] Top shape: 89 384 13 13 (5775744)
I0617 12:13:49.926519 34209 net.cpp:156] Memory required for data: 1182888676
I0617 12:13:49.926527 34209 layer_factory.hpp:77] Creating layer cccp6
I0617 12:13:49.926544 34209 net.cpp:91] Creating Layer cccp6
I0617 12:13:49.926553 34209 net.cpp:425] cccp6 <- cccp5
I0617 12:13:49.926564 34209 net.cpp:399] cccp6 -> cccp6
I0617 12:13:49.936493 34209 net.cpp:141] Setting up cccp6
I0617 12:13:49.936519 34209 net.cpp:148] Top shape: 89 384 13 13 (5775744)
I0617 12:13:49.936527 34209 net.cpp:156] Memory required for data: 1205991652
I0617 12:13:49.936547 34209 layer_factory.hpp:77] Creating layer relu9
I0617 12:13:49.936563 34209 net.cpp:91] Creating Layer relu9
I0617 12:13:49.936570 34209 net.cpp:425] relu9 <- cccp6
I0617 12:13:49.936581 34209 net.cpp:386] relu9 -> cccp6 (in-place)
I0617 12:13:49.936599 34209 net.cpp:141] Setting up relu9
I0617 12:13:49.936609 34209 net.cpp:148] Top shape: 89 384 13 13 (5775744)
I0617 12:13:49.936615 34209 net.cpp:156] Memory required for data: 1229094628
I0617 12:13:49.936622 34209 layer_factory.hpp:77] Creating layer pool3
I0617 12:13:49.936635 34209 net.cpp:91] Creating Layer pool3
I0617 12:13:49.936641 34209 net.cpp:425] pool3 <- cccp6
I0617 12:13:49.936651 34209 net.cpp:399] pool3 -> pool3
I0617 12:13:49.936724 34209 net.cpp:141] Setting up pool3
I0617 12:13:49.936740 34209 net.cpp:148] Top shape: 89 384 6 6 (1230336)
I0617 12:13:49.936815 34209 net.cpp:156] Memory required for data: 1234015972
I0617 12:13:49.936822 34209 layer_factory.hpp:77] Creating layer drop
I0617 12:13:49.936836 34209 net.cpp:91] Creating Layer drop
I0617 12:13:49.936843 34209 net.cpp:425] drop <- pool3
I0617 12:13:49.936858 34209 net.cpp:386] drop -> pool3 (in-place)
I0617 12:13:49.936902 34209 net.cpp:141] Setting up drop
I0617 12:13:49.936916 34209 net.cpp:148] Top shape: 89 384 6 6 (1230336)
I0617 12:13:49.936928 34209 net.cpp:156] Memory required for data: 1238937316
I0617 12:13:49.936936 34209 layer_factory.hpp:77] Creating layer conv4-1024
I0617 12:13:49.936951 34209 net.cpp:91] Creating Layer conv4-1024
I0617 12:13:49.936959 34209 net.cpp:425] conv4-1024 <- pool3
I0617 12:13:49.936976 34209 net.cpp:399] conv4-1024 -> conv4
I0617 12:13:50.158113 34209 net.cpp:141] Setting up conv4-1024
I0617 12:13:50.158179 34209 net.cpp:148] Top shape: 89 1024 6 6 (3280896)
I0617 12:13:50.158186 34209 net.cpp:156] Memory required for data: 1252060900
I0617 12:13:50.158203 34209 layer_factory.hpp:77] Creating layer relu10
I0617 12:13:50.158227 34209 net.cpp:91] Creating Layer relu10
I0617 12:13:50.158237 34209 net.cpp:425] relu10 <- conv4
I0617 12:13:50.158254 34209 net.cpp:386] relu10 -> conv4 (in-place)
I0617 12:13:50.158275 34209 net.cpp:141] Setting up relu10
I0617 12:13:50.158285 34209 net.cpp:148] Top shape: 89 1024 6 6 (3280896)
I0617 12:13:50.158293 34209 net.cpp:156] Memory required for data: 1265184484
I0617 12:13:50.158300 34209 layer_factory.hpp:77] Creating layer cccp7-1024
I0617 12:13:50.158323 34209 net.cpp:91] Creating Layer cccp7-1024
I0617 12:13:50.158331 34209 net.cpp:425] cccp7-1024 <- conv4
I0617 12:13:50.158346 34209 net.cpp:399] cccp7-1024 -> cccp7
I0617 12:13:50.224392 34209 net.cpp:141] Setting up cccp7-1024
I0617 12:13:50.224431 34209 net.cpp:148] Top shape: 89 1024 6 6 (3280896)
I0617 12:13:50.224438 34209 net.cpp:156] Memory required for data: 1278308068
I0617 12:13:50.224452 34209 layer_factory.hpp:77] Creating layer relu11
I0617 12:13:50.224467 34209 net.cpp:91] Creating Layer relu11
I0617 12:13:50.224474 34209 net.cpp:425] relu11 <- cccp7
I0617 12:13:50.224490 34209 net.cpp:386] relu11 -> cccp7 (in-place)
I0617 12:13:50.224506 34209 net.cpp:141] Setting up relu11
I0617 12:13:50.224529 34209 net.cpp:148] Top shape: 89 1024 6 6 (3280896)
I0617 12:13:50.224551 34209 net.cpp:156] Memory required for data: 1291431652
I0617 12:13:50.224560 34209 layer_factory.hpp:77] Creating layer cccp8-out
I0617 12:13:50.224580 34209 net.cpp:91] Creating Layer cccp8-out
I0617 12:13:50.224588 34209 net.cpp:425] cccp8-out <- cccp7
I0617 12:13:50.224599 34209 net.cpp:399] cccp8-out -> cccp8-out
I0617 12:13:50.227679 34209 net.cpp:141] Setting up cccp8-out
I0617 12:13:50.227705 34209 net.cpp:148] Top shape: 89 43 6 6 (137772)
I0617 12:13:50.227715 34209 net.cpp:156] Memory required for data: 1291982740
I0617 12:13:50.227728 34209 layer_factory.hpp:77] Creating layer relu12
I0617 12:13:50.227742 34209 net.cpp:91] Creating Layer relu12
I0617 12:13:50.227751 34209 net.cpp:425] relu12 <- cccp8-out
I0617 12:13:50.227763 34209 net.cpp:386] relu12 -> cccp8-out (in-place)
I0617 12:13:50.227777 34209 net.cpp:141] Setting up relu12
I0617 12:13:50.227785 34209 net.cpp:148] Top shape: 89 43 6 6 (137772)
I0617 12:13:50.227792 34209 net.cpp:156] Memory required for data: 1292533828
I0617 12:13:50.227799 34209 layer_factory.hpp:77] Creating layer pool4
I0617 12:13:50.227813 34209 net.cpp:91] Creating Layer pool4
I0617 12:13:50.227819 34209 net.cpp:425] pool4 <- cccp8-out
I0617 12:13:50.227833 34209 net.cpp:399] pool4 -> pool4
I0617 12:13:50.227886 34209 net.cpp:141] Setting up pool4
I0617 12:13:50.227902 34209 net.cpp:148] Top shape: 89 43 1 1 (3827)
I0617 12:13:50.227910 34209 net.cpp:156] Memory required for data: 1292549136
I0617 12:13:50.227917 34209 layer_factory.hpp:77] Creating layer accuracy
I0617 12:13:50.227936 34209 net.cpp:91] Creating Layer accuracy
I0617 12:13:50.227944 34209 net.cpp:425] accuracy <- pool4
I0617 12:13:50.227953 34209 net.cpp:425] accuracy <- label
I0617 12:13:50.227970 34209 net.cpp:399] accuracy -> accuracy
…
